Notebooks/modelos/word2vec_6g.pt (torch, 112048 bytes, 3 tensors)

embeddings.weight f4 [424, 32]
000000 bb fd 1b 40 2e 67 c0 3f 7e 51 9d 3f 67 f9 1d c0
       2.4373615 1.5031488 1.2290494 -2.4683473
000010 f8 54 a4 3e 06 60 6f bf 61 5f c1 be 28 59 e1 bf
       0.32096076 -0.93505895 -0.3776808 -1.7605333
000020 52 7c ab bf f0 eb f0 3f ea 9a 24 bf 94 f9 d9 bf
       -1.3397315 1.8822002 -0.6429888 -1.702929
000030 93 ce 82 bf 2c 16 3e bf 57 10 97 bf 1d ea 7d 3f
       -1.0219291 -0.7425258 -1.1801862 0.99185354
000040 7f 88 9f 3f b4 ad ec be 06 05 a4 bf 15 02 de 3e
       1.246353 -0.46226275 -1.2814033 0.43360963
000050 32 90 70 bf 52 06 a7 3f 34 28 43 3f 28 93 24 40
       -0.93970025 1.3048804 0.7623322 2.5714817
000060 8f ce 87 3f ee d0 a8 3f 96 f7 c5 3e 19 fe b8 3f
       1.0609912 1.318876 0.38665456 1.4452544
000070 03 26 ca be 30 9c a4 3e 03 9f 52 3e fc a9 26 3f
       -0.39482126 0.32150412 0.2056847 0.65103126
000080 ba c9 1a 3e 6f cf 78 bf 73 2b 84 3e a1 bd 15 3f
       0.15116015 -0.9719152 0.258144 0.58492476
000090 ca ec e8 3e a3 7a 9f bf aa 45 8e bf c4 38 b6 bf
       0.45493156 -1.2459301 -1.111501 -1.4236073
0000a0 ec 98 a3 bf e6 df 0b 40 f5 13 de bf a4 21 c2 bf
       -1.2781043 2.1855407 -1.734984 -1.5166516
0000b0 66 1e be bf 17 56 01 40 a9 a8 cd bf 5d 41 2e 3f
       -1.4853027 2.0208795 -1.6067096 0.68068486
0000c0 7a 16 b5 bf be 6d fb bf c0 3a 8a be 77 88 46 3f
       -1.4147484 -1.9642866 -0.26997948 0.7755198
0000d0 bf d3 19 bf 65 91 06 40 90 aa 48 bf c1 3f 9c 3c
       -0.60088724 2.1026242 -0.7838526 0.019073369
0000e0 8e 74 70 be 98 1c 60 3f 15 dd 56 be a1 7e d8 3f
       -0.23481962 0.8754363 -0.20982774 1.6913644
0000f0 5a 83 ba be 1b 82 2e 40 51 ad ec be ae a4 0b 40
       -0.36428338 2.726691 -0.4622598 2.1819263
000100 f0 08 0b 40 9f 79 e8 3f 2a 4a 26 40 b3 7a 38 be
       2.1724205 1.8162116 2.5982766 -0.18015556
000110 9c f6 de 3e b9 5b d4 bf d3 e4 00 c0 3d 9e d9 3e
       0.43547523 -1.6590492 -2.0139663 0.4250354
000120 df 31 95 be ed 40 a2 3f 3d 21 00 bf 06 63 c2 bd
       -0.2913961 1.2676064 -0.5005072 -0.094915435
000130 1a 83 06 3f 57 cf c9 bf 45 53 32 c0 12 1f 6a 3d
       0.52543795 -1.57664 -2.7863324 0.057158537
000140 dd ed 45 3f e8 af 41 bf a2 b2 1c c0 01 ea 20 bf
       0.77316076 -0.75659037 -2.448403 -0.6285706
000150 6d 86 8f be 15 ed af 3f 0a b8 1b be 54 27 99 3f
       -0.28032246 1.3744227 -0.15206924 1.1965127
000160 ba a5 9a 3f da 89 34 bf 25 16 90 be 60 d5 8d 3e
       1.2081826 -0.70522845 -0.28141895 0.27701855
000170 3c 82 9c bf 79 c0 db 3e 46 79 ce 3f f3 16 59 3f
       -1.2227244 0.42920282 1.613076 0.8480064
000180 20 a4 17 c0 d7 5f a0 3f d0 e6 1b 3f c2 fa bc bd
       -2.3693924 1.2529248 0.60899067 -0.09227516
000190 79 43 9c 3e 23 7e 8d 3f 60 53 b2 3f d5 bf 23 bf
       0.30520228 1.1054119 1.3931694 -0.6396459
0001a0 c5 57 1b bf 77 4f 9b 3f 68 d3 4b 3f d9 41 28 3f
       -0.606808 1.2133626 0.79619455 0.65725476
0001b0 58 69 84 3b 72 73 fc 3f 85 9b d0 bf fd 59 27 bf
       0.0040408783 1.9722731 -1.6297461 -0.65371686
0001c0 77 0b 6f bf 8d ee 25 3e 4b b0 8b bf ec 1d ec 3f
       -0.9337687 0.16204281 -1.0913175 1.8446631
0001d0 98 b5 b5 3f 5c 33 bd 3c 47 8d 10 bf 7b 38 8a 3f
       1.4196043 0.02309578 -0.5646557 1.0798486
0001e0 7e f7 1a 3e 73 ca 95 3e 7c 3d 83 3f 26 17 d9 3f
       0.15133473 0.2925602 1.0253139 1.6960189
0001f0 b3 c7 aa 3f ef 53 98 3f a8 2c ea 3e fb 95 b8 3f
       1.3342193 1.1900615 0.45737195 1.442077
000200 50 f5 10 3f e7 77 08 40 28 b6 e2 3c 6e ef f1 bf
       0.5662432 2.1323183 0.02767475 -1.8901193
000210 df 77 00 3f 8d 5c d8 3f 32 65 15 3f a7 17 3e 3f
       0.5018291 1.6903244 0.58357537 0.7425484
000220 57 f2 93 3f bc ec 56 3f be 62 03 c0 f3 8c c8 3f
       1.1558331 0.8395498 -2.0529017 1.5668014
000230 7b c5 81 3d 93 16 ee 3f f9 2d e0 bf 5b c1 16 3f
       0.063364945 1.8600639 -1.751403 0.5888879
000240 2e 7f 53 bf 84 c3 81 3e 59 a2 81 3f c0 96 0e 40
       -0.82615936 0.2534448 1.012767 2.227951
000250 6b 21 61 3f 09 8c 09 be 40 a4 d1 bf 5e 83 e7 3f
       0.87941617 -0.13432325 -1.637825 1.8086965
000260 95 5d cf be bd 25 e9 3e 0e 1e f9 bd c1 16 2d 40
       -0.40501085 0.45536605 -0.121639356 2.7045138
000270 2d 28 e9 bf 2b 9d 54 3f 2d 81 0f bf 9c f8 8c 3f
       -1.8215386 0.8305232 -0.5605648 1.101337
000280 b2 d2 8a bf de fc 27 3f 93 ec b6 3d 4a 14 b5 bf
       -1.0845549 0.6562022 0.08931842 -1.4146817
000290 ee 1a 83 3f c6 a4 22 bf a9 a9 a1 bf 94 70 86 bf
       1.0242593 -0.63532674 -1.2629901 -1.0503106
0002a0 7c fe 24 c0 9a 82 ce 3f ad eb 5d 3f 0b c5 6e be
       -2.5780325 1.6133606 0.8668774 -0.23317353
0002b0 d6 8f fd bf f9 19 dc be 41 36 e1 3f e4 7e 0d 40
       -1.980952 -0.42988566 1.7594682 2.2108698
0002c0 d0 a1 46 3f 69 b8 20 3f 3d f0 e5 bf b3 6d 18 bf
       0.77590656 0.6278139 -1.796394 -0.5954239
0002d0 c9 55 5b bf f8 96 e4 bf 03 25 d8 bf e8 76 c4 3e
       -0.8567777 -1.7858572 -1.6886295 0.38371968
0002e0 67 fc 8f bd ea b9 fe bf 46 2c 22 bf 4a fb 64 3e
       -0.07030564 -1.9900486 -0.63348806 0.22361484
0002f0 a2 8c a1 3f 4b 12 6e be a0 c6 f4 3f b5 1f 82 3f
       1.2621043 -0.23249166 1.9123116 1.0165926
000300 f6 27 0a 40 08 b0 33 bf f5 b8 67 3f 35 f0 0e bf
       2.158689 -0.7019048 0.905166 -0.55835277
000310 dc d3 fc bf 22 9b 52 3f 57 c6 75 3f 9b ff 3a 3f
       -1.9752154 0.82267964 0.9600577 0.73046273
000320 26 7d ff 3d 5b 9a e7 3f f7 52 d4 bf 68 77 27 bf
       0.12475042 1.809398 -1.6587819 -0.65416574
000330 02 9f bd be da 02 a3 3f 41 12 b7 3e 75 28 93 3f
       -0.37035376 1.2735245 0.35756114 1.1496722
000340 73 92 78 be e4 82 04 c0 ee 2f 82 bf 09 a8 11 3e
       -0.24274616 -2.070489 -1.0170877 0.14224257
000350 8e 2f 19 bf 90 78 f4 be 2d 79 3b be 3f 1f da bf
       -0.5983819 -0.47748232 -0.18307944 -1.7040786
000360 36 97 70 be d6 2b 09 3f 64 3a c2 bf fc c0 4b 40
       -0.23495182 0.53582513 -1.517407 3.1836538
000370 78 06 ca 3f 1d cd ab 3e 37 d4 29 3f c8 03 1e 40
       1.5783224 0.33554927 0.6633944 2.4689808
000380 0e e2 31 3f bd e3 9b 3f ed b6 c8 3e 96 8e 41 bf
       0.6948556 1.2178875 0.3920206 -0.75608194
000390 d4 48 f5 bf a1 57 d0 3e 56 51 f6 bd 09 d8 ef 3f
       -1.916285 0.40691856 -0.12027232 1.8737804
0003a0 af d9 88 3f b3 ef 9b bf 11 43 2c c0 e5 4f a3 bf
       1.0691432 -1.2182525 -2.6915934 -1.2758757
0003b0 3e 18 36 be 20 db c1 bd 97 df 62 3f 5f 1d 00 3f
       -0.17782685 -0.09465623 0.8862242 0.50044817
0003c0 46 51 01 be 50 6f ef be 65 4b 3e bf 9f 76 55 3f
       -0.1262866 -0.46764612 -0.7433379 0.83384126
0003d0 6e 1c dd bf 44 d8 ba bd 09 15 de be bf 1f f3 3f
       -1.7274301 -0.09123281 -0.43375424 1.8994063
0003e0 ec 54 0f 40 74 d5 8c bf 3f 96 12 bd c6 0f 80 3f
       2.2395582 -1.1002641 -0.035787817 1.0004814
0003f0 c0 11 e7 3f 46 dc b9 3f 7c bb 93 3f 99 7c a0 3f
       1.8052292 1.4520347 1.1541591 1.2538024

salida.weight f4 [424, 32]
000000 8b e9 eb 3e 19 f8 38 3e ac 45 e3 3e 48 b2 a4 be
       0.46076617 0.18063392 0.44389093 -0.32167268
000010 15 ae 12 3e 2f 1c 8c be ea 9d 34 bf 9b 2d eb be
       0.1432422 -0.27365252 -0.7055346 -0.45933232
000020 99 25 c3 be 08 24 7f 3e 85 30 c2 be b5 3d 05 bf
       -0.38114622 0.24916089 -0.37927642 -0.5204728
000030 f6 5d 87 be 12 e8 90 3d cb 38 c6 be ae 67 e1 3e
       -0.26438874 0.07075514 -0.38715205 0.44024414
000040 57 4d 85 3e 21 9a 19 bf 1e 88 2a bf 35 d1 e6 3d
       0.26035568 -0.6000081 -0.6661395 0.11270372
000050 e9 c2 de be f2 55 03 3f 39 bc b4 be 38 93 01 3f
       -0.4350808 0.5130302 -0.35299852 0.50615263
000060 47 d5 f0 3d 5c 64 86 3e d2 f8 2f 3e a1 ca cd 3e
       0.117594294 0.26248443 0.17184761 0.40193656
000070 9b 37 6b 3d 44 17 13 3f b0 57 a5 3e 72 57 c1 3e
       0.057426076 0.57457376 0.32293463 0.37762028
000080 71 00 84 3e 6d 32 2e 3f 62 db ac 3e e3 41 f3 be
       0.25781587 0.68045694 0.33761126 -0.47511205
000090 7d f0 6f 3d 6c 3b 1a 3e d7 ba 12 3f 5b f6 2e bf
       0.058578957 0.1506173 0.57316345 -0.6834466
0000a0 7a e2 34 be 14 98 06 3f 3e 67 3b be 93 b7 12 3d
       -0.17664519 0.525758 -0.18301103 0.0358196
0000b0 c9 4d 9b 3d 9e 95 ab 3e 2e 52 e6 be 08 d0 b1 3d
       0.07583196 0.33512586 -0.44984573 0.08682257
0000c0 53 50 ab bc 73 29 94 3e 6f 24 3b bf 1d da 2c 3f
       -0.020912325 0.28937873 -0.7310247 0.67520314
0000d0 84 83 f8 3d 3e 45 02 3e 1a 25 3d be b6 1a 50 3f
       0.121344596 0.12721726 -0.18471184 0.8129076
0000e0 83 04 76 3e a8 03 58 3d 05 87 d1 3e 1a fb c4 3e
       0.24025159 0.052737862 0.40923324 0.38472825
0000f0 6d 09 0d 3e b3 89 27 3f cd 2f e3 3d 30 b3 ff 3e
       0.13773127 0.6544449 0.11093102 0.49941397
000100 cc e2 31 3f a4 08 46 3e 64 59 fe 3d c0 92 e7 be
       0.6948669 0.19339234 0.12419394 -0.4522915
000110 17 dc 12 bf 12 1b 75 3c a7 28 58 bd 95 74 31 bd
       -0.5736708 0.014960067 -0.052773144 -0.043324072
000120 ca 59 d0 3d 65 7b 14 3e cd 76 3a bf 21 00 c3 be
       0.10173376 0.14500196 -0.72837526 -0.38086036
000130 7b e3 35 be fa bb ef 3c 93 51 3a 3e 81 54 ba 3e
       -0.17762558 0.029264439 0.1819518 0.36392596
000140 b4 88 82 3e 69 35 19 bf f5 27 2a bf bb f2 87 3d
       0.2549492 -0.5984712 -0.6646722 0.06638094
000150 40 79 2e bf 64 f4 88 3d 93 ea 4d be 6f 67 be 3e
       -0.6815376 0.06687239 -0.20109014 0.3718829
000160 bf fc b7 3e a8 85 1a 3b c5 7d 4a bd 4f d2 08 3f
       0.35935017 0.00235782 -0.04943635 0.53445905
000170 0f 4f 1d 3f 5f 03 9a 3e ae 6e da 3e 75 08 20 3f
       0.6144876 0.30080697 0.42662567 0.62512904
000180 10 c2 00 3f 2c 04 3d bf dc 18 cd be 19 ff 40 bf
       0.50296116 -0.7383449 -0.4005803 -0.7538925
000190 70 a2 de bc fa 12 d6 be ec 23 31 bf c3 c2 00 bf
       -0.027177066 -0.41811353 -0.6919544 -0.5029718
0001a0 d8 6a 42 3e bc e3 3d 3f f1 79 a0 be 9d 2d b4 be
       0.1898607 0.7417562 -0.31343034 -0.3519105
0001b0 8c f0 9f 3e ad 72 2f 3f 50 a3 ed 3d 89 e1 db 3e
       0.3123821 0.68534356 0.11603415 0.42945507
0001c0 b8 bd e4 be bc 14 11 bf f3 b8 45 be 4d b2 e2 be
       -0.44675994 -0.56672263 -0.19308834 -0.44276658
0001d0 78 70 4a 3e 64 f5 e6 3e a0 1b 00 bf c4 47 9b bc
       0.19769466 0.45109093 -0.5004215 -0.018955119
0001e0 12 af b0 3e cf 83 82 bd e3 46 30 be 43 1e 4c 3e
       0.34508568 -0.06372797 -0.17214541 0.19933419
0001f0 3a bb 84 3e 19 40 4a 3f d8 53 8b b9 6d 13 e4 3e
       0.25924093 0.79004055 -0.00026574614 0.4454607
000200 53 a6 80 bb a8 12 25 be 71 71 ec be 8d f8 e3 be
       -0.0039260774 -0.16120398 -0.461803 -0.44525567
000210 e2 fb 70 be 70 4e 0b bf 37 cc d8 be 02 ec 59 be
       -0.23533586 -0.5441656 -0.42343304 -0.21281436
000220 17 d3 a1 3e 1f af c6 3e 7d 1a c7 be 46 0c ea be
       0.3160636 0.38805482 -0.38887396 -0.4571249
000230 40 b9 5c be 93 b3 02 3e cb 42 c0 3d 33 21 96 3e
       -0.21555042 0.12763815 0.0938774 0.29322204
000240 86 78 8d be 15 30 fb be fb 82 ec bb 51 e4 bf 3e
       -0.27631015 -0.4906012 -0.0072177625 0.3747888
000250 a8 29 99 3e 26 dc d4 3e 4f 39 0c bf 08 c2 ee 3e
       0.29914594 0.4157421 -0.54774946 0.4663241
000260 08 66 40 be c2 43 ea bd db 63 ad be 7a 97 48 3d
       -0.18788922 -0.11438705 -0.33865246 0.048972584
000270 d4 19 4c 3d 62 9d 4e 3f b5 40 79 be 1f 64 28 3f
       0.04982932 0.807089 -0.2434109 0.6577777
000280 0e 57 3e 3f 62 91 c8 be 39 e4 46 be 81 b1 41 3e
       0.74351585 -0.39173418 -0.19422998 0.18915369
000290 65 29 d1 3d 48 34 a0 be e7 5f df be a8 a6 02 bf
       0.102129735 -0.31289887 -0.43627855 -0.5103555
0002a0 c3 a7 8c 3e 8b 27 17 bf 82 5f e2 be a8 43 c7 3e
       0.27471742 -0.5904471 -0.44213492 0.38918805
0002b0 d6 c0 28 3e f2 9c a7 3e 28 3a a6 be 23 ec 96 3e
       0.16479811 0.32736927 -0.32466245 0.29477033
0002c0 0a a7 ca 3e ba db 09 bf cf 42 fa be 42 3d 2e 3e
       0.39580566 -0.538509 -0.48879096 0.17015556
0002d0 5e c6 2d 3e 09 9a b9 be c4 8a 17 be 86 59 ad 3e
       0.16970202 -0.36250332 -0.14799029 0.33857363
0002e0 e2 3c e4 3d 7c f6 15 bf 11 91 01 bc 89 aa c0 3e
       0.11144425 -0.5857923 -0.007908122 0.37630108
0002f0 42 0f 54 3e 0f cb 78 bc ff 8b a3 be bc 21 1e 3f
       0.20708945 -0.015185132 -0.31942746 0.61770225
000300 02 27 8c 3e e6 9c c9 3e 5e 44 9a 3e d1 78 41 be
       0.2737351 0.39377517 0.30130285 -0.18893744
000310 b6 12 74 3c b2 3a 0f bf a2 10 98 be 00 29 a7 be
       0.014897039 -0.55948937 -0.2970019 -0.32648468
000320 b0 b0 00 3d 87 90 c2 3e 3e d5 63 3e 8a b2 38 3f
       0.031418502 0.3800089 0.22249314 0.7214743
000330 99 89 d4 3e 70 ae fe be 24 d8 7a be 65 7d 4a bc
       0.4151123 -0.4974246 -0.24496514 -0.012358998
000340 98 4f e2 3e 73 91 38 3d f7 4a 33 bf f4 a1 ad 3b
       0.4420135 0.045060586 -0.7003626 0.0052988473
000350 c1 55 02 3e ae 60 f9 3d e4 da 5c be 7a bd 13 3f
       0.12728025 0.12176643 -0.21567875 0.57710993
000360 62 a9 f4 3e 70 22 53 bf 7e e3 b1 be 3e 78 90 be
       0.4778548 -0.8247442 -0.34743875 -0.28216738
000370 9f 5d 82 3d ac 0f 52 3f c8 5f 48 bd 2e 71 00 3f
       0.06365513 0.82055163 -0.04891947 0.501727
000380 70 c3 13 3f 6f e6 2e 3f 55 d2 bd 3e 25 c1 86 3d
       0.5772009 0.68320364 0.37074533 0.06579808
000390 71 2d 01 3c 55 5c eb be 0e 0b d5 be f2 a1 fe 3b
       0.007884369 -0.4596888 -0.41609997 0.00777077
0003a0 77 41 a4 3e 65 f2 ec 3c 5a 5f 22 bf e4 57 2e be
       0.32081196 0.028924176 -0.63426745 -0.17025715
0003b0 71 5f 30 3f 07 e0 23 bf 92 81 eb bd 5a 71 fa 3d
       0.6889563 -0.64013714 -0.11499323 0.12228651
0003c0 85 a1 17 3f df cf 7b be 75 06 1a bf 64 78 07 bf
       0.59230834 -0.24591015 -0.601661 -0.52918077
0003d0 30 51 c6 be 24 83 52 3e 17 ff 05 bf 57 55 63 3e
       -0.38733816 0.20557839 -0.5234236 0.22200523
0003e0 35 4b 04 3d 8a 80 59 bf a5 ca 38 3e 1d bc 09 bf
       0.032298286 -0.8496176 0.18046053 -0.53802663
0003f0 f5 16 8b 3e fd 5e 10 3f 51 9c cf 3e 90 5f 96 3e
       0.27165952 0.5639494 0.40548947 0.29369783

salida.bias f4 [424]
000000 f1 cb c5 ba 25 46 a8 bd 98 dd 6a be c0 fa d1 3b
       -0.0015090687 -0.08216504 -0.22936094 0.0064080656
000010 d5 70 e8 be 4c fa c9 be 47 55 c1 be c0 71 90 be
       -0.45398584 -0.39448774 -0.37760374 -0.28211784
000020 86 80 39 be 68 53 2a be 54 d6 88 be 77 39 db be
       -0.18115434 -0.1663338 -0.2672602 -0.4281728
000030 40 be 38 be 1c 0e b3 be 6f 08 d2 be 9f 10 c2 be
       -0.18041325 -0.34971702 -0.4102206 -0.37903306
000040 47 88 d3 be 7e 1d 7c be f6 b8 3a 3d 16 38 c0 be
       -0.4131491 -0.24620625 0.04558655 -0.3754279
000050 b9 2b 2b bd 43 53 73 be 17 5a f5 be cd 9c b3 be
       -0.041789744 -0.2376223 -0.47920296 -0.35080567
000060 c0 1f 18 bf ca 4c de be 73 fe e9 be a9 ef 0c bd
       -0.59423447 -0.4341796 -0.45701942 -0.034408245
000070 c9 fc e0 be 3c f5 14 bf 61 b5 9e be a0 05 07 bc
       -0.4394286 -0.581867 -0.30997756 -0.008241087
000080 cb a1 e5 3d 8a 14 5b 3e 13 cb 84 be 20 50 e2 be
       0.112125 0.21394554 -0.25936183 -0.44201756
000090 e1 dd a1 bd 51 ed 3b be 06 a5 e9 be e7 4e 97 be
       -0.07903648 -0.18352248 -0.45633715 -0.29552385
0000a0 0f ee bf be 73 1f be be d5 de d8 be 52 f3 9c be
       -0.37486312 -0.3713337 -0.42357507 -0.3065439
0000b0 10 7c 0a bf 59 b2 a6 be 86 59 ee be e8 82 61 3b
       -0.54095554 -0.32557943 -0.46552676 0.0034410302
0000c0 6a d4 8f 3d b9 67 93 bd 09 58 b5 be 8c 7a 8c be
       0.07022937 -0.07197518 -0.35418728 -0.27437246
0000d0 e8 93 22 3e f4 cb c3 be 7e e1 cf be 1a 78 2e be
       0.15876734 -0.3824154 -0.40601724 -0.17038003
0000e0 43 37 67 3e 20 69 92 be 2e 50 11 bf 0f e8 40 be
       0.22579674 -0.2859583 -0.5676297 -0.18838523
0000f0 f7 c8 c6 be 38 ea b3 3e 30 fb a8 be e5 12 c7 be
       -0.388252 0.35139632 -0.3300414 -0.38881603
000100 11 26 2c 3d 13 6d cc be 9a fb 91 be 0b 95 9f be
       0.04202849 -0.39926967 -0.2851227 -0.31168398
000110 b1 8f 8d be 13 89 29 bd 08 00 ee be 8c c0 ac be
       -0.2764869 -0.04139049 -0.464844 -0.33740652
000120 67 36 ab be 05 5b 02 bf 73 db 9c bc d4 4f 86 be
       -0.33439943 -0.50920135 -0.01914761 -0.2623278
000130 fa 02 26 be be 42 9d be dd a6 e2 be b7 9c c7 be
       -0.16212073 -0.30714983 -0.44267932 -0.3898675
000140 3d a3 0a bf e8 e6 4b 3d 8a 2c 57 be f0 f5 5e be
       -0.5415533 0.049780756 -0.21013084 -0.21773505
000150 04 94 90 be 35 9a c7 be 10 2a 13 bf 26 a2 81 be
       -0.28237927 -0.38984838 -0.5748606 -0.25319022
000160 37 b1 da bd 89 92 fb be 85 68 99 be 36 ac d3 be
       -0.10678332 -0.49135235 -0.29962555 -0.41342324
000170 0f 37 c6 bd fa cb 71 3c 04 06 7b be 04 7b dc 3e
       -0.0967847 0.014758104 -0.24514014 0.43062603
000180 49 e3 81 3e 5b 03 6f be c2 64 85 3d 47 29 f8 3e
       0.25368717 -0.23341124 0.06513359 0.48468992
000190 62 50 b7 3e 6d b9 76 3e 35 69 40 be 3a 6c 92 be
       0.35803515 0.24094172 -0.18790133 -0.28598195
0001a0 09 42 44 be 5f c9 b4 be 51 76 7c be e2 0a a8 3d
       -0.19165815 -0.35309884 -0.24654509 0.08205201
0001b0 c1 e2 c5 3d 24 5b c0 3e b0 e5 16 3e 7e 8d b4 3d
       0.096623905 0.37569535 0.14736056 0.0881605
0001c0 66 0b fd 3d 1a 39 93 bd 7b 45 01 bf a9 46 66 bd
       0.1235569 -0.07188626 -0.50496644 -0.05621973
0001d0 9e 03 03 be 5c a2 98 bd 47 d1 f1 be 34 a4 cf be
       -0.12794349 -0.074528426 -0.47229978 -0.40554965
0001e0 87 c9 e6 be 10 63 17 bf d9 8a e4 be 77 60 94 3e
       -0.45075628 -0.5913553 -0.44637182 0.28979847
0001f0 5b 9e a7 be e5 37 e2 be ef 86 28 be b2 7b 01 bf
       -0.32738003 -0.4418327 -0.16457723 -0.5057937
000200 41 15 42 3e 7b 41 bf 3e 79 3a de be 8b 75 98 be
       0.1895342 0.37354645 -0.43403986 -0.29777178
000210 fa d2 8e be 8b 79 89 3d 5d 7a 65 bd d2 74 cb bc
       -0.27895337 0.067126356 -0.056024898 -0.024835978
000220 86 aa c8 be 70 6d 13 bf f1 9f 68 be a1 8a 18 be
       -0.391926 -0.57588863 -0.22717263 -0.14896633
000230 d4 c4 83 be a6 32 91 bd ab be d7 be 66 76 8c be
       -0.25736105 -0.070897385 -0.42137656 -0.2743408
000240 a3 4a fb be 35 ac cd be ba 88 c9 be 23 fb 16 bf
       -0.4908038 -0.40170446 -0.39362127 -0.58976954
000250 04 c4 10 bf 97 cd 01 bf c7 18 f5 be ca d1 27 3e
       -0.56549096 -0.5070433 -0.47870466 0.16388622
000260 ae 38 cb be 96 f7 13 bf c9 fd 02 bf 6e bf bb be
       -0.3969168 -0.5779966 -0.51168495 -0.36669487
000270 7e e5 dc be 8b c2 95 be a1 0a 92 be 5e eb 94 3e
       -0.4314384 -0.29249987 -0.28523734 0.2908582
000280 48 1d b4 be 08 c1 ac be 3f 7f bf be 0c 37 a4 be
       -0.3517859 -0.3374102 -0.3740177 -0.32073247
000290 0f a7 95 3e 11 8c 8e 3d 7e 47 84 bd 3d 33 30 bd
       0.29229018 0.06960309 -0.064589486 -0.043017615
0002a0 e7 d8 ce be 3b ce 76 3c ee 3e 75 be 09 10 5e be
       -0.40399858 0.015063818 -0.23949787 -0.21685804
0002b0 04 bb 98 bd 2a 6d 9c be 3d 16 08 be ab 37 bf be
       -0.074575454 -0.30552036 -0.13289733 -0.3734716
0002c0 06 40 97 bd 5d ff 1d bf ca f4 3c be 3d f1 a4 be
       -0.073852584 -0.6171778 -0.18452755 -0.322153
0002d0 d2 a2 7e be 2c 1b d5 be 4a 20 69 be e7 cd 65 3c
       -0.24866799 -0.41622293 -0.22766224 0.014026142
0002e0 08 88 af be 6e 2f 5f be 89 e6 c2 be c4 cf cf be
       -0.3428347 -0.21795437 -0.3806651 -0.405882
0002f0 19 14 e0 be 40 f8 af be de ed b2 be c0 2c 8f be
       -0.43765333 -0.34369087 -0.34947103 -0.2796383
000300 51 58 ee be 48 ab 8a be 7c 3f a7 be 40 72 3c be
       -0.46551755 -0.27083802 -0.32665622 -0.18402958
000310 ff 83 d6 be 2b 53 02 bf b0 77 9f be 57 89 ba 3e
       -0.4189758 -0.50908154 -0.31146002 0.36432907
000320 b6 3c e7 be 6c b5 03 bf 02 3e 0f bf 7c bb 14 bf
       -0.45163506 -0.514487 -0.5595399 -0.5809858
000330 8f 35 fc bd 15 42 8d be 3e 6b b8 3e 06 48 16 bf
       -0.12314903 -0.2758948 0.3601932 -0.5870365
000340 80 cf a8 be ad 8c 39 bf 0c 36 37 be d9 81 02 bf
       -0.3297081 -0.7248028 -0.17891711 -0.5097938
000350 3b d1 fc 3d bc 0a 46 be 4d 8e 09 be f6 3a a2 be
       0.12344595 -0.19340032 -0.1343319 -0.3168561
000360 3f 13 38 be 79 04 b6 be 04 ab c5 be 1e ce f9 bc
       -0.17976092 -0.35550287 -0.38607037 -0.030493792
000370 df 6e b6 be 49 70 12 be f1 97 ea bd 95 95 ff be
       -0.35631463 -0.14300646 -0.11454762 -0.4991881
000380 a2 a9 cd be 24 02 74 be 2d a4 0a be d6 72 a5 be
       -0.40168482 -0.23828942 -0.1353919 -0.32314175
000390 4e 56 e7 bd 3e 3a 00 be 83 97 ab be 4b 51 27 bf
       -0.11295758 -0.12522218 -0.33514032 -0.6535842
0003a0 df 28 79 be 29 fa 83 be 25 97 87 bc 09 eb 0b be
       -0.24331997 -0.25776795 -0.016551564 -0.13663878
0003b0 a9 02 af be dd c9 15 bf 4c 79 1d 3e 49 5a 8a be
       -0.34181717 -0.58511144 0.15378302 -0.27022007
0003c0 fb e4 97 be 61 05 5e be 0a 2b 0f bf 35 a7 a0 be
       -0.29666886 -0.2168174 -0.5592505 -0.3137757
0003d0 48 eb b3 be bc 10 84 be b8 99 f7 be f4 85 07 be
       -0.35140443 -0.25794017 -0.48359466 -0.13234693
0003e0 06 a6 c2 be 08 81 43 3d 5f 69 44 bd 3d 98 46 be
       -0.3801729 0.047730476 -0.047952052 -0.19394012
0003f0 e5 81 ba 3d 5d 44 6d be 1b 36 9f bd 6f 3c 47 be
       0.09106807 -0.2317061 -0.07773992 -0.19456647
