Notebooks/modelos/word2vec_1g.pt (torch, 3376 bytes, 3 tensors)

embeddings.weight f4 [8, 24]
000000 e0 bf 84 3f 09 44 29 3f 59 1d 2f bf f0 dd b8 be
       1.0371056 0.6611944 -0.68404156 -0.36106825
000010 33 08 87 3f c2 4e f2 3f 8d e8 aa 3d 16 57 d6 3d
       1.0549377 1.8930285 0.08345137 0.10465829
000020 06 29 1c 3f 62 b9 73 3f fe 4e 46 3d 92 c1 c3 bf
       0.61000097 0.95204747 0.048415177 -1.5293448
000030 59 c0 8d 3b 41 f1 6f 3e 01 97 67 be fc 54 f1 bc
       0.004325908 0.23431875 -0.22616197 -0.029459469
000040 cd aa 15 3f 9d f7 6f bf 81 98 d5 be 16 d5 f5 3e
       0.58463746 -0.937372 -0.41717914 0.48014134
000050 a0 d5 64 3f 45 e7 0f 3f 4c 8a 5c bf b0 9a 84 3e
       0.89388466 0.56212264 -0.86148524 0.25899267
000060 5a 47 0a 40 8f 4c 04 3f c8 e9 e2 be 7a f8 c7 be
       2.160605 0.5167932 -0.44318986 -0.3905676
000070 ab d0 e1 3f 35 80 b5 3e 86 f5 b7 3d 23 83 d3 bd
       1.7641805 0.35449377 0.08982377 -0.10327747
000080 1a 81 66 bd 96 38 84 bd 64 69 14 be 8b 4d cf 3c
       -0.056275465 -0.064561054 -0.14493328 0.02530553
000090 ef b1 0a 3f 87 c8 25 be 29 2a b6 bf 77 5d 28 3e
       0.54177755 -0.16189776 -1.4231616 0.16441904
0000a0 55 f8 94 3f da e7 84 bf 0c c9 0f be 11 e7 4b 3e
       1.1638285 -1.0383255 -0.14041537 0.19912364
0000b0 c5 1e 2c 3f 37 00 00 40 fd fc 02 3e 4e 6b ef bd
       0.6723445 2.000013 0.1279182 -0.116903886
0000c0 4c 7c e5 3e 27 c6 38 bf 01 64 4f 3e e9 99 89 bd
       0.44821393 -0.72177356 0.20252992 -0.06718809
0000d0 e2 10 c3 3c 21 12 a8 be 53 57 3f 3f 11 b2 2c bf
       0.023811761 -0.3282633 0.7474262 -0.6745921
0000e0 44 60 2e 3f c6 44 34 3f ea 7a 81 bf 4d f7 05 be
       0.6811564 0.7041744 -1.0115635 -0.13082619
0000f0 f8 5a 09 3f c2 f9 97 bf 72 b3 2a 3f f0 91 72 be
       0.5365443 -1.1873095 0.6668006 -0.23688483
000100 cc 5b f6 3e 64 90 dc 3a ea 01 cf bf 9c 6a 1a be
       0.4811691 0.00168277 -1.6172459 -0.15079731
000110 0b cd ba 3f 2c 23 58 3f d6 4e 97 bd 44 d9 13 be
       1.4593824 0.8442867 -0.07388084 -0.14438349
000120 b7 62 9d 3f 86 e5 88 3d 2e 2d 4e bf ae ce ac 3e
       1.229575 0.06684403 -0.8053769 0.33751434
000130 9d cc 5c 3f ae 9f b1 bf ae d2 f6 3e 46 90 61 bf
       0.86249715 -1.3876855 0.4820761 -0.8811077
000140 4b 17 34 3f eb 12 b7 3f 3e b6 0c bf 42 d1 00 3f
       0.7034804 1.4302648 -0.5496558 0.503193
000150 f5 2c 77 bf c8 c0 49 bf da 78 6d be 06 b9 0b 3f
       -0.96552974 -0.78809786 -0.23190632 0.545792
000160 40 a5 2e bd a6 a2 a3 3f a2 41 33 3e 37 4a e4 bf
       -0.042638063 1.2784011 0.17505506 -1.7835149
000170 b7 35 b8 be d2 02 96 bf 1d 81 0b 3d 9b da 29 bf
       -0.3597848 -1.1719611 0.03405868 -0.6634919
000180 c1 fc 72 3e 48 45 f5 be f6 2c a7 bf 66 9f b8 3e
       0.2372923 -0.4790442 -1.3060596 0.3605911
000190 86 79 9b bf 94 65 f5 be 76 3a 8d 3e 14 88 42 bf
       -1.2146461 -0.4792906 0.27583665 -0.7598889
0001a0 ae c4 83 bf 9a 0e 7d 3f 6f 98 85 3f ee 0f 79 3f
       -1.0294397 0.98850405 1.0437144 0.9728993
0001b0 9d 6a 02 bf f0 25 a0 bf 84 a7 96 3e 10 19 f7 3f
       -0.5094393 -1.2511578 0.2942468 1.9304523
0001c0 8f db 8a 3e ea dd 1a 3f d3 01 ad be 2a b4 7d bf
       0.27120635 0.60494864 -0.33790454 -0.99103034
0001d0 21 c1 54 bf b4 78 d9 bf b2 a1 8a bf 1c 8c ea be
       -0.8310719 -1.6989961 -1.0830595 -0.4581002
0001e0 f3 91 c2 3f f8 6c 7e 3e 37 33 a1 3f f8 a5 70 3f
       1.520079 0.24846256 1.2593755 0.9400325
0001f0 85 94 47 3f 03 3a 45 3f f5 0d 2f bf 27 b4 2c c0
       0.77961 0.77041644 -0.6838067 -2.6984956
000200 31 1e 78 3e 6e e4 b9 be 09 90 8a 3f 99 03 66 bc
       0.24230267 -0.3630709 1.0825206 -0.014038944
000210 7e b8 cb 3b ae 59 80 3e 03 d6 a9 be 11 e0 13 bf
       0.0062170615 0.2506842 -0.3317109 -0.57763773
000220 88 60 24 3e 0e e2 f1 3e 91 09 bd 3e d8 e2 b8 bf
       0.16052449 0.4724278 0.3692136 -1.4444227
000230 67 a8 56 40 03 fe 45 3f 53 2d e1 bd e9 60 1c be
       3.3540285 0.77340716 -0.10994973 -0.15271343
000240 e4 d4 9b 3f db f8 3a bf 01 30 e7 be 13 69 a6 3f
       1.2174344 -0.73035973 -0.45153812 1.3000816
000250 93 36 3b 3e b5 5b 83 bd 29 5a 1c be 2e ed 0d bf
       0.18282537 -0.06413976 -0.15268768 -0.5544003
000260 ad ce 25 3e 47 88 f0 be b1 4c c4 bd 5a 35 88 3e
       0.16192122 -0.4697897 -0.0958494 0.26603204
000270 77 b3 59 be ec 2e 67 3e de 80 10 3f 46 62 d9 3c
       -0.21259867 0.22576493 0.56446636 0.026536118
000280 16 45 41 3e 0b c2 bc be 94 6a 26 bf 21 e0 a2 3f
       0.1887401 -0.36866793 -0.65006375 1.2724649
000290 9c 7f 5c 3e 96 40 64 3f 59 1c 46 be 84 bb 7e 3c
       0.21533054 0.8916105 -0.19346751 0.015547637
0002a0 02 28 31 bf 20 8e a8 bd ee c9 26 3f 88 f6 20 bf
       -0.6920167 -0.08230233 0.6515187 -0.62876177
0002b0 c2 00 03 3d a3 ee 15 40 4e 31 e9 3f 74 af c8 3e
       0.031983145 2.3426902 1.8218172 0.3919636
0002c0 42 44 12 40 d9 55 11 bf e6 c9 29 3f 0d 90 cb be
       2.2854161 -0.5677162 0.663237 -0.3975834
0002d0 25 f1 d8 3d 8f 31 25 bf dc 2f 1d 40 8e 9d 3e 3f
       0.1059287 -0.64528745 2.456046 0.7445916
0002e0 30 7a 9a be 03 8d 18 3f f2 23 cf be ad 59 19 3f
       -0.30171347 0.59590167 -0.40457112 0.5990246
0002f0 8d 27 02 c0 af 8a 17 bf b6 d0 2f bf e0 a6 12 40
       -2.033664 -0.5919599 -0.6867784 2.2914352

salida.weight f4 [8, 24]
000000 9a 47 c8 bc 96 0a 60 3e 00 04 03 be 79 44 ca be
       -0.024448205 0.21879038 -0.12794495 -0.39505365
000010 b4 1e 87 3e b2 7e 1c 3f f8 e1 b0 bd ae dd b3 3e
       0.26390612 0.6113082 -0.0863685 0.35130066
000020 7d a6 8b 3c 15 ee a2 bd ae da 00 3e 4f 03 66 be
       0.017047161 -0.07955567 0.1258342 -0.224622
000030 80 97 95 3e 9e a9 03 3e ae 81 f1 bc 5c c8 e5 bd
       0.29217148 0.12857673 -0.029480781 -0.11219856
000040 ae f8 4a 3c 60 3c fd be 11 9d 1e 3e 0c 0b df 3e
       0.012388391 -0.49460125 0.15489604 0.43563116
000050 d9 e8 92 3d 4c 63 29 3e 9b cc 17 be ad b9 52 3e
       0.071733184 0.16541785 -0.14824145 0.20578642
000060 0a 6f b6 bd 57 c9 7d 3e 9d 3b 31 bd 5d 34 79 be
       -0.08907898 0.24783836 -0.043269742 -0.24336381
000070 00 6e b9 3e 40 d7 cd 3d 2a b8 0c be f9 11 04 3e
       0.36216736 0.10050821 -0.13742128 0.12897481
000080 4d 0b f0 bd f4 6a 27 bd 03 a4 78 be 47 d8 9e be
       -0.117209055 -0.040873483 -0.24281316 -0.31024382
000090 a7 1c ad 3e 1c 6f f9 3d 98 14 e5 be 86 83 73 be
       0.33810923 0.121793956 -0.44742274 -0.23780641
0000a0 53 03 ea 3b ba 11 97 be 81 5e 8b 3e dc 1e ad 3e
       0.0071415096 -0.29505712 0.27220538 0.33812606
0000b0 fd 72 5d 3b d9 9a 09 3f fe 26 92 3e ab 2e 6b 3d
       0.0033790462 0.53751904 0.28545374 0.057417553
0000c0 17 85 12 3f f6 25 d8 bd 46 f4 05 be 15 07 e6 bd
       0.5723433 -0.105541155 -0.13081464 -0.112318195
0000d0 21 ea 84 3e b4 11 4f be d8 0b b7 3e e2 d8 1f be
       0.25959876 -0.20221597 0.35751224 -0.15610078
0000e0 2b 17 b5 3e 04 70 0d 3e 66 f5 ce be 57 d6 d7 bd
       0.35369238 0.13812262 -0.404216 -0.10538929
0000f0 73 76 66 3e 1e 0e 91 be 0b 29 f5 3c 31 66 9e bd
       0.22506122 -0.28331083 0.029926797 -0.07734335
000100 08 ce 64 3d 59 35 2f bd 2e bd 92 be 35 1e ba bd
       0.05586055 -0.042775486 -0.28659958 -0.09087793
000110 86 80 d6 3d ae 00 d7 3d 4d 32 f8 3c 83 be 7f bd
       0.10473733 0.104981765 0.030297423 -0.062437546
000120 29 a5 3c bd 14 ea 11 bd c6 4f 1c be 31 94 e7 bd
       -0.046055946 -0.035623625 -0.15264806 -0.11307562
000130 36 e2 46 be f6 2e 19 bf 1e d5 4a 3e c1 2c f1 bd
       -0.1942223 -0.5983728 0.1980786 -0.11776114
000140 46 59 70 bd f0 02 17 3e 87 d1 da be 28 51 74 3e
       -0.058678888 0.14747214 -0.42737982 0.23859084
000150 8b fa d0 bc 59 ec 68 be 51 41 d9 bd 4b af 83 bc
       -0.025510093 -0.2274641 -0.10608161 -0.016074797
000160 88 b4 35 bd a7 4c 86 3e 88 3e 0d 3e d8 0a 3f be
       -0.04436162 0.26230356 0.13793385 -0.1865648
000170 cf e7 21 be 93 75 90 be 5a 67 87 3e 29 8c 0c be
       -0.15811084 -0.28214702 0.26446038 -0.13725342
000180 c6 c3 88 be cc 60 2c bd 39 8d 16 bf 22 09 57 3e
       -0.26711863 -0.0420845 -0.5880924 0.20999578
000190 55 91 a0 be 2e 35 b4 be c2 c8 5a 3d d8 a3 2b 3e
       -0.3136088 -0.35196823 0.053414114 0.1676172
0001a0 17 3c 5c be 85 f0 bf 3e a7 fa 22 3e 84 05 02 3e
       -0.21507297 0.3748819 0.15915929 0.12697417
0001b0 9f 91 72 be ec da 95 bd 56 74 c6 3c de 69 a0 3e
       -0.23688363 -0.07317147 0.024225395 0.3133077
0001c0 54 8a 68 be 8a c9 64 3e 15 f8 6b 3e b3 73 ea bd
       -0.22709018 0.22342506 0.23043855 -0.11447849
0001d0 d0 15 cd be 7f e9 93 be 4f 51 53 be dd 54 19 bd
       -0.40055704 -0.2888908 -0.20636486 -0.037434448
0001e0 80 df f1 3d eb dd dc 3d 45 54 bc 3e b8 07 e1 3d
       0.11810207 0.10784515 0.36783043 0.109878
0001f0 d0 cc 98 3d 5f 93 b7 3d 85 dd e8 be 98 53 cd be
       0.0746094 0.08963656 -0.45481506 -0.4010284
000200 bf ab 3b 3e e2 30 64 be 01 f6 77 3e c3 50 ea bd
       0.18327235 -0.22284272 0.24214937 -0.11441185
000210 67 02 17 3e f8 67 28 3e 85 19 91 bd 7c db dd be
       0.1474701 0.16445911 -0.070849456 -0.43331516
000220 e5 e5 91 be c8 07 2e 3c 0b ac 6d 3e c0 cf 21 be
       -0.28495708 0.010621972 0.2321016 -0.15801907
000230 73 d4 9a 3e ac 30 dd 3e 36 61 65 3e c3 4a 22 bc
       0.3024021 0.43201196 0.22400364 -0.00990552
000240 90 b3 c3 3d 8c ca 85 3d 7b 0c 83 3a 3a 09 be bc
       0.09555733 0.065327734 0.0009998226 -0.023197759
000250 77 c0 91 3e 21 44 f9 3d f5 6b 88 3c 42 48 b6 bc
       0.28467152 0.12171198 0.01665304 -0.022251252
000260 be df c7 3d 8b 69 a3 bd 42 60 87 3d 7b 8a e6 bd
       0.09759472 -0.07979115 0.066101566 -0.11256882
000270 89 b4 81 3e d4 63 79 3d 4e 8d f9 3c e9 74 21 3d
       0.2533305 0.06088622 0.030462887 0.039418135
000280 39 5f d6 3d a3 3b e1 bd 96 11 c7 3d 9e 1e 1d 3e
       0.10467381 -0.10997703 0.09720151 0.15343711
000290 e6 d8 90 bd 3c d0 de 3d 41 dd 8d bd 85 bf 40 3e
       -0.0707262 0.10879561 -0.069269665 0.18823059
0002a0 18 e7 f6 be 2c 8c 45 3e 3d 07 9c 3e a7 0d 0c bf
       -0.48223186 0.19291753 0.30474272 -0.5470833
0002b0 25 ea 06 bf 59 ec fd 3e 7c 4c 55 3e 63 4e f2 3e
       -0.52701026 0.4959438 0.20829958 0.4732543
0002c0 76 03 9a 3e 77 1a 08 bf f7 8a f6 3d ac 4a b5 be
       0.30080765 -0.5316538 0.12038224 -0.35408533
0002d0 87 35 57 3e d8 1a 5a 3f f5 f8 35 3e ff 5a 09 be
       0.21016513 0.8519721 0.17770751 -0.13413619
0002e0 58 5a fd be d3 75 e0 be 96 42 03 3f 37 90 00 3f
       -0.4948299 -0.43839893 0.5127348 0.50220054
0002f0 75 07 19 bf 01 29 29 bf c6 7f c0 3e 03 34 1d 3f
       -0.59777004 -0.6607819 0.37597483 0.6140749

salida.bias f4 [8]
000000 a2 ba 6e be 03 01 10 be e0 b3 e3 3e c6 ed 99 be
       -0.23313382 -0.14062886 0.4447317 -0.3006422
000010 ac 41 cd bc cc ca da be a9 61 68 3e 8a ca 4c bf
       -0.025055729 -0.42732847 0.22693504 -0.7999655
